…
As can been seen on the grapghs, the loss very quickly converges to a low value, while the accuracy for the traning goes up, but the accuracy for the test is a bit all over the place. 
It does however converge to a value of around 90%, witch is quite acceptble.
When evaluating the model on the test set, the following results are obtained:

```
Test loss:  0.44181203842163086
Test accuracy:  0.75
```
== Model recap

#figure(
  grid(
    columns: (2fr, 1fr ),
    gutter: 3pt,
[    
```
_______________________________________________
 Layer (type)                Output Shape              Param #   
===============================================
 dense (Dense)               (None, 1024)              77824     
 dropout (Dropout)           (None, 1024)              0         
 dense_1 (Dense)             (None, 512)               524800    
 dropout_1 (Dropout)         (None, 512)               0         
 dense_2 (Dense)             (None, 256)               131328    
 dropout_2 (Dropout)         (None, 256)               0         
 dense_3 (Dense)             (None, 64)                16448     
 dropout_3 (Dropout)         (None, 64)                0         
 dense_4 (Dense)             (None, 32)                2080      
 dropout_4 (Dropout)         (None, 32)                0         
 dense_5 (Dense)             (None, 1)                 33        
===============================================
```
    ],

  ),
    caption: [On the left is the model recaped, while on the right is the test loss and accuracy.]
)


